pretrained/proteinclip_esm2_6.onnx (onnx, 580842 bytes, 6 tensors)

layers.0.weight f4 [320, 320]
00000000: 0bf6 9fb8 b747 c03c 95f4 873a 5bf1 d3bc
00000010: e7e3 8a3c b2cb 0b3d 590d 8b3c 7384 f8bc
00000020: f4a0 4fbd 35c4 563d 38f3 d2bc f2d0 ff3c
00000030: cb0e d3b9 fc79 26bd 9e28 aabc 5037 e63c
00000040: 64ab 26bc a5f0 fa3b 6966 973b 1f04 3f3d
00000050: c832 60bd e752 d03b ea88 ee3c 210a acbc
00000060: fe83 55bb e55f 6ebc cffb dabc 8924 5cbd
00000070: d991 62bd d974 e3bb 770f a7bc a884 a23c
00000080: 44f2 523c ed7b 9f3c d067 24bd d922 3b3d
00000090: 86c6 abbb 1e60 a33c cbf1 04bb 87f4 ee38
000000a0: f8c7 14bd 924e 06bd 09e5 843c ed74 25bc
000000b0: 58d2 bcbc fc29 093d 782c 27bb 99b0 613d
000000c0: ece7 a1bc fc31 80bc 08a6 26bd 03cc ea3c
000000d0: b1dd f3bc fea7 0c3c 58ec 163d 14e4 46bc
000000e0: e153 273d 10e3 303d 6d2a 7abb 5c2d 4d3c
000000f0: 00a6 4b3d df02 953c c962 39bd 79c3 3b3d
00000100: fd1e 83bd 5583 f2bc 7e0d a8bc 0cc7 f0bc
00000110: 9e6c 2cbd 6a08 80bd c1dd d6bc a127 073a
00000120: f2fd 8d3c 5960 17bd 56c6 163d d76c 36bd
00000130: 1ecf 57bc a2ec 3dbd 5855 053d ea1d 13bc
00000140: 18e5 5c3c 7cb6 8bbb 7c47 25bb cfa8 3a3d
00000150: fa77 2f3d 4a03 c93c 6efc cf3c 4dd5 903c
00000160: f581 8f3c cabf dc3a 4db9 683c 9206 323d
00000170: 8072 98bc 5754 2e3d 9434 723c ee0b 62bc
00000180: 7ea7 8d3d a5ab 0abb f134 c8bc e5f3 bfbc
00000190: 0e2f d8bc 8dcf 313c efef 34bd 4555 1c3d
000001a0: 49c7 1cbd 2055 d3bc 1241 73bd 88d3 adbd
000001b0: 24ab 42bd fdb3 88bc 9fd1 243d c36a 1f3d
000001c0: 552d 8b3c d0a9 85bd fdbf 1dbc 9cc6 c03c
000001d0: f49d 98bd 5b03 9a3c a2a9 543c 7590 61bd
000001e0: 27b4 86bd 14e5 c63b b49e ec3b 0667 643d
000001f0: ed7d 293c 535c 043c bd24 d3bc 5006 103d
00000200: 4024 573c afbd 2f3d dbde 373c a4db 03bc
00000210: e51f 90bc 1930 9abb 07a4 0fbd 797a 3fbc
00000220: c16e 2abd fc72 7c3c f649 a53c 27f1 1c3d
00000230: 8c70 3dbd e574 153d 96ad 1dbd a04f de3c
00000240: 0eed 1abc e98c 9a3c 5481 743c 4676 403c
00000250: 5bfb dabc 2e1c dfbc cea3 1b3d e1fc 16bd
00000260: 6fb9 fb3c 5bec 653c 5356 2fbd a9e1 2ebd
00000270: 6158 0c3d 9ceb 233d ded8 21bd 7e60 8c3c
00000280: 1d9d 3cbc 92d2 19bd 36ff 6c39 57ba 343d
00000290: 33ca 473c 0cbb 4dbd 9cb0 00bc 8732 683c
000002a0: 2bec 123c 4f5b d7bc 2052 503b a64e fb3b
000002b0: 7fea 8b3c 2695 f9bc 0213 3fbb 11ab ff3b
000002c0: 1298 78bc 26b1 eabc cdc4 1f3c 8562 153d
000002d0: 3236 073d 4315 07bd e776 ebbc 0155 01bb
000002e0: 9a7f 2f3d 6323 a83a 2b21 01bc f93f a53c
000002f0: 2655 ddbc 07dc 3bbd cc48 6e3b 6844 c23c
00000300: 2b04 1ebd 9ef4 df3c cd60 b63c d672 583c
00000310: b212 cb3c 9289 38bd 663d f1bc d5e8 9abb
00000320: 3fc3 4c3d cad2 46bd 82ec b5bc 5014 963b
00000330: 7cf0 17bd c82a 423c bf90 083d 9ec4 cbbb
00000340: 19a6 c4bc 1e03 60bc ccb9 dabc 39c9 403c
00000350: b3c0 aebc 4ec5 793c f5c4 c23c f50d 2b3d
00000360: bb83 313a 5ae9 d6bc f7a9 2b3a 9528 8cbc
00000370: 18d8 bdbc 6dd2 fe3c f131 30bd bd6d cd3b
00000380: 1448 03bd c5fd 4c3c 9f4f 763b 0da4 0dbd
00000390: 6f64 53b7 6517 1f3c 31e1 373d 4a92 9b3d
000003a0: 393e bfbb e75b 473d 724c 12bd 6c3f 8f3c
000003b0: 3867 62bc 3736 1cbc 47e8 f0ba a1ab 80bc
000003c0: fe73 fa3a d78a 4e3d a5a3 29bc 6f2b 243d
000003d0: 1372 193d e465 26b9 27d7 3d3c f9a6 0fbd
000003e0: 39b7 a03a 82ab 87bc 15e2 3b3d 361f 273c
000003f0: 2aa2 7d3d 87ae 73bc f2fe 503d 7eff 86bc
-7.62754e-05 0.023471696 0.0010372574 -0.025871923 0.016954375 0.034129806 0.016974138 -0.030336594
-0.050690606 0.05243321 -0.025750741 0.031227563 -0.00040256078 -0.040643677 -0.02077132 0.028102547
-0.010172699 0.0076580816 0.0046203625 0.04663479 -0.05473593 0.006357539 0.02911802 -0.021000924
-0.0032579894 -0.01454923 -0.0267314 -0.05374578 -0.055314872 -0.0069414196 -0.020393116 0.019838646
0.012875143 0.019468272 -0.040138066 0.04568753 -0.0052421717 0.019943293 -0.0020285721 0.00011394271
-0.036323518 -0.032789774 0.016222494 -0.010098678 -0.023049518 0.033487305 -0.0025508683 0.055100057
-0.01976391 -0.015648834 -0.040685683 0.028661733 -0.029768797 0.008584974 0.03684649 -0.012139339
0.040851478 0.043185294 -0.003817226 0.012523022 0.049718857 0.018189846 -0.045260224 0.045840714
-0.06402395 -0.02960364 -0.020514246 -0.029391788 -0.042095773 -0.06251605 -0.026228787 0.00051557465
0.017333005 -0.03695712 0.03681024 -0.04453739 -0.013171939 -0.04636825 0.032552093 -0.0089793
0.013482355 -0.004263697 -0.002521961 0.045571145 0.042839028 0.024537701 0.025388923 0.017679835
0.017518023 0.0016841826 0.014204335 0.043463297 -0.018609285 0.0425609 0.014783043 -0.01379679
0.06916712 -0.0021159437 -0.024439307 -0.023431728 -0.026389625 0.010852707 -0.04417413 0.038167257
-0.03827599 -0.025797427 -0.059388228 -0.08487612 -0.047526494 -0.016687388 0.040238973 0.038920175
0.01698939 -0.0652653 -0.009628293 0.023532204 -0.07452002 0.018800428 0.012979897 -0.055069406
-0.0657733 0.0060697887 0.0072210673 0.055762313 0.010344964 0.008078652 -0.025774354 0.03516227
0.013131201 0.042905506 0.0112225665 -0.008047972 -0.017593333 -0.0047054407 -0.035068538 -0.011686915
-0.04160953 0.015408274 0.020176869 0.03831592 -0.04624991 0.036488432 -0.038495623 0.027137578
-0.009455932 0.01886602 0.014923412 0.011746949 -0.026731184 -0.027235117 0.037998013 -0.036862258
0.03072807 0.014033402 -0.042806935 -0.042695675 0.034263972 0.040019616 -0.03951346 0.017135855
-0.011512068 -0.03755433 0.00022601787 0.04412302 0.012194204 -0.05022721 -0.007854607 0.014172203
0.00896744 -0.026288657 0.0031787232 0.0076692877 0.01707959 -0.030466627 -0.0029155617 0.007802375
-0.015172975 -0.028648924 0.009751511 0.03647091 0.03301067 -0.03297926 -0.02874322 -0.0019734504
0.0428463 0.0012827929 -0.007881443 0.020172106 -0.027018141 -0.04586413 0.0036359308 0.02371426
-0.038578194 0.027338322 0.022262955 0.013210973 0.024789188 -0.045053072 -0.029448222 -0.004727463
0.04999089 -0.048540868 -0.022207502 0.004580058 -0.03709458 0.01185102 0.033341166 -0.006218507
-0.024004983 -0.013672618 -0.026699923 0.011766725 -0.02133212 0.015244795 0.023775557 0.041761357
0.00067716435 -0.026234318 0.0006548459 -0.017109195 -0.02317433 0.031106198 -0.043016378 0.0062691853
-0.03205116 0.012511675 0.003758408 -0.03458028 -1.2599964e-05 0.009710168 0.044892494 0.07596262
-0.005836275 0.04867163 -0.035717435 0.017486297 -0.013818555 -0.00953441 -0.0018379771 -0.015706839
0.0019108055 0.050425377 -0.010353957 0.040080484 0.037462305 -0.00015868951 0.011586941 -0.035071347
0.0012261636 -0.016561273 0.045869906 0.010200312 0.06192223 -0.0148731535 0.051024385 -0.01647925

layers.0.bias f4 [320]
00000000: 71be 263d a3bd db3c 3056 cd3c df79 48bd
00000010: f3ab 20bd 1fee 43bd de8b 80bc 5bf9 4d3d
00000020: ee76 5cbc 1e40 d0bc 15a1 3e3d e158 c03c
00000030: d236 ba3c e8a7 0f3d dfed 3cbd 00c2 9ebc
00000040: c84b eb3b 8f38 d73c a1ca aebc ff48 b7bc
00000050: 4c0b 543c f84e 26bd 6c7b 4e3c 3880 f13b
00000060: 6996 3fbc db4b 3e3d 038c 46bd 25b7 f6bc
00000070: 831a 153b a956 f1bc ec06 5c3d 323c 0e3d
00000080: e869 febc df27 073d 5d04 f9bc 6459 42bd
00000090: fedd 1abd efc8 cc3c 3c0e 413c 436e 3a3c
000000a0: 5edc 35bb bac2 a0bc e2a3 0c3d d897 4abd
000000b0: e14f 4c3d 7657 96bb 8d59 71bb 010c 833c
000000c0: 7562 7b3c 5fa8 083d 2d07 05bd d665 4ebd
000000d0: 1eca 163d 6653 30bd e404 f5bb 91bc 0c3d
000000e0: 46ad e63c fbbf 0cbd a37d 14bd dc02 dbbc
000000f0: 7a19 a33c fa91 19bd 8294 2bbd b569 5cbb
00000100: 1ec1 bbbc 0980 b4bc f22d 19bd f194 b83c
00000110: d369 36bc c886 57bc 9d96 f6bc 9117 1a3d
00000120: f356 3fbc bb72 25bd 1270 383d 3dd2 4d3d
00000130: 9d95 ad3c 45d5 333d 54a5 103c 38cc 4d3d
00000140: c238 25bd a70f 22bd d4a1 ccba ccc1 273d
00000150: e0fd 8f3b 5519 3abd ed47 21bd 8260 553d
00000160: 4e99 033d 1e12 6b3c 9c92 19bc 2f78 8cbb
00000170: 6950 b43c c7c6 1c3d b53b 4fbc 9fa8 a6bb
00000180: 1b8b 183d bcaf 49bd a045 d1bb e703 733c
00000190: d63f 26bd c6e9 cbbc 5d51 203d 1df5 ea3c
000001a0: a8d0 27bd 1f62 28bc 2dbe 7cbc 94b6 af3c
000001b0: f773 3e3d 7771 99bc 5ea8 cebb cadf abbc
000001c0: 6737 a7bb c159 c6bc ab4c 71bc a500 db3c
000001d0: a387 393d 6c40 c839 1198 383c 7f95 163d
000001e0: 81ae ba3b 8f0d e73c 0b6d 2c3d 89f8 563d
000001f0: 27c9 ffbb cbfd 633c 617e 88bc 5a03 533d
00000200: 1755 89ba e93b 92b8 3901 ab3c 8008 4dbd
00000210: 44eb c53c 784b 343d cbd6 03bd 55c7 3f3c
00000220: 9e7b 61bd 9a83 9abc 79d2 493d 7de8 ed3c
00000230: 663b ffbc 6be7 e4bc ff22 263d e7a2 17bd
00000240: cb4e a63b dce7 b83c 5c5e 903c d2e1 093d
00000250: 826b fabc 0753 fcbc 7a53 1cbd 9d8d 463d
00000260: 42d8 893c 28ea 203d eabb a6bc cb0b 163c
00000270: aca5 3abb 441a 1dbd dd3f 3cbb 76d6 4fbd
00000280: 76c8 38bd 71c4 43bd 16d5 9b3c 5508 923b
00000290: c033 113d cc2d 39bd cd9a dabb 3743 2fbc
000002a0: 168f 713c 6adf 8d3b 3192 47bd 9efb 05bd
000002b0: 4ffb 2abd ab09 653c 5adf 5d3d 0b75 363d
000002c0: 1f28 d73c 4f0d 493d 8b73 a2bc 215d 2dbd
000002d0: 3608 d2bc 1382 183d 3115 45bd 685c 06bd
000002e0: f140 88bc 9c7d 883c 9809 97bc d1a9 35bd
000002f0: 1258 05bd 021d cd3c e965 2abd a820 1fbd
00000300: bccc 873b 5b74 68bc 6414 74bb 3d25 f23b
00000310: fce0 0e3d dee7 2b3a 3ef0 f0bc f072 c73c
00000320: d6cc 4fbd 61ee 493d 620a 1e3d 1ce0 3b3d
00000330: 5c0b 4e3d 6c3d 073c ad27 683d 03ff c23c
00000340: b239 4e3d 6cc5 083d a18f 21bd f477 15bc
00000350: 0bbb f43c 1fa5 c4bc 53c7 813c d581 d3bb
00000360: faff 09bd a195 ee3c d0c0 4cbd 4cab 543c
00000370: ed92 363d 1f62 2c3d ff53 463d e2a3 47bd
00000380: 02de 053d cf18 68bd 3aff 12bd f349 e93b
00000390: c640 1dbd 3807 163c de51 423d c2ee 4dbc
000003a0: 2dda 4fbd 6def 06bd ddb1 c23c 815a 59bc
000003b0: bbc6 373d 3eae 11b9 737b 4dbd f2d1 07bd
000003c0: 9840 403b 5500 3bbd be55 2bbd b2a6 b13c
000003d0: 3a7d 1dbd e136 35bd d6a0 9dbc 0e48 63bc
000003e0: 2fd8 40bd 8d79 95bc eec0 c5bc e73d ccbc
000003f0: ed7b 06bd e4e5 113d 9071 263d ed7c 013d
0.040708963 0.026823824 0.025065511 -0.04894435 -0.039226484 -0.04783451 -0.015691694 0.050286632
-0.013456089 -0.025421198 0.04654034 0.02347988 0.022731218 0.035072237 -0.04612529 -0.019379616
0.0071806647 0.026272086 -0.021336855 -0.022373674 0.0129421465 -0.040602654 0.012602668 0.007370021
-0.011693575 0.04645906 -0.04847337 -0.030116627 0.0022751398 -0.029460268 0.05371754 0.034725375
-0.03105636 0.03299701 -0.030397588 -0.04744853 -0.037809364 0.024998156 0.011783179 0.0113788275
-0.0027749757 -0.019624103 0.03433598 -0.049461216 0.049880866 -0.004588063 -0.0036827058 0.015996935
0.015343298 0.033363696 -0.032477546 -0.050390087 0.036813848 -0.043048285 -0.0074773896 0.03435952
0.028158795 -0.034362774 -0.03625263 -0.026734762 0.01990961 -0.03749273 -0.041889675 -0.0033632342
-0.022919234 -0.022033708 -0.037397332 0.022531958 -0.011133629 -0.013154693 -0.030101115 0.03762013
-0.011678445 -0.04039262 0.045028754 0.050249327 0.021189505 0.04390456 0.00882848 0.050243586
-0.04033733 -0.03956571 -0.0015612193 0.040956303 0.004394278 -0.045434315 -0.039375234 0.05209399
0.032128625 0.014347581 -0.009373333 -0.004286788 0.022010999 0.038275506 -0.012648513 -0.005086019
0.037242036 -0.04923986 -0.006386474 0.014832473 -0.040588222 -0.024891745 0.039140094 0.028681332
-0.040970474 -0.0102773 -0.015426201 0.021449365 0.04649731 -0.018730862 -0.006306692 -0.020980734
-0.00510304 -0.02421272 -0.014727752 0.026733706 0.04529537 0.0003819497 0.011266724 0.036763664
0.005697072 0.028204707 0.04209618 0.052483115 -0.0078059616 0.013915489 -0.016661825 0.05151687
-0.0010477629 -6.972982e-05 0.020874606 -0.050056934 0.024160035 0.044017285 -0.032187264 0.011705239
-0.05504953 -0.01886158 0.049272988 0.029041523 -0.031156253 -0.02794238 0.04056072 -0.03702059
0.005075311 0.022571497 0.017623119 0.033662625 -0.030568842 -0.03080131 -0.038165547 0.048474897
0.016826753 0.03928581 -0.020353276 0.009158085 -0.0028480096 -0.038355127 -0.002872459 -0.050741635
-0.04511305 -0.047794763 0.019022506 0.0044565597 0.035449743 -0.04520969 -0.0066712857 -0.010697178
0.014743587 0.0043296115 -0.048723403 -0.032710664 -0.041743573 0.013979356 0.054168083 0.044545215
0.026264248 0.049084958 -0.019830486 -0.042325143 -0.02563868 0.037233423 -0.048115913 -0.03280297
-0.016632529 0.016661458 -0.018437192 -0.044351403 -0.032554694 0.025038246 -0.041601095 -0.038849503
0.0041442793 -0.014187898 -0.00372436 0.007389693 0.03488253 0.0006557683 -0.029411431 0.024346799
-0.050732456 0.0492996 0.03858412 0.045868024 0.050303802 0.00825439 0.056678463 0.02380324
0.05034799 0.0333914 -0.039443616 -0.009122837 0.029874345 -0.024004517 0.015842116 -0.006454686
-0.033691384 0.029124083 -0.049988568 0.0129802935 0.044573713 0.042085763 0.04841995 -0.048740275
0.032682426 -0.056664284 -0.035887934 0.007119411 -0.03839185 0.0091569945 0.047441356 -0.012569131
-0.050745178 -0.032943178 0.023766452 -0.013266207 0.04486726 -0.00013893188 -0.05016656 -0.033159204
0.0029335376 -0.045654614 -0.041829817 0.021685932 -0.038449503 -0.04424179 -0.019241732 -0.01387216
-0.04708117 -0.018246436 -0.024139848 -0.024931861 -0.03283303 0.03561963 0.040635645 0.03161328

layers.2.weight f4 [320]
00000000: 077d 7c3f 4331 7c3f e98c 803f 26d6 823f
00000010: 11ac 7d3f 01ac 7d3f 2abe 7e3f 9919 823f
00000020: f056 7c3f 0ac3 7e3f 84fe 7d3f d669 7d3f
00000030: 3045 7c3f a2b4 7d3f 1d19 7d3f 7af5 7f3f
00000040: ba7a 7c3f a1fd 7b3f a57c 803f 3e40 7e3f
00000050: f817 7e3f 1325 7e3f 68e9 7b3f ab37 7f3f
00000060: 2f35 823f 03ca 7e3f 62b6 7c3f eb3b 7f3f
00000070: 97ea 833f 2bb9 7f3f 5f7f 7d3f 8e13 7e3f
00000080: 11dd 7d3f 5002 813f d71a 7e3f de08 7d3f
00000090: 7cd0 813f b734 7d3f a36f 853f a098 7f3f
000000a0: e348 7f3f b272 7f3f d895 813f 3875 833f
000000b0: a9d0 7e3f 9732 803f 5e47 813f e3f7 7d3f
000000c0: 3f31 7f3f 2658 7e3f f882 803f ea8d 7d3f
000000d0: 0d95 7c3f 6716 7c3f 389b 8b3f 72ff 7e3f
000000e0: 3503 7c3f 8ed9 7e3f 3552 813f 2494 7f3f
000000f0: 1720 833f 733f 7d3f 21d9 7e3f 9500 7e3f
00000100: 8d95 7f3f b0d9 813f 21d0 7e3f c130 853f
00000110: 3678 7f3f 3b97 803f c618 7f3f f4d6 853f
00000120: e8a0 813f b3c9 863f fd44 7f3f 575a 803f
00000130: 5d67 7f3f d74c 7c3f 0456 7f3f 3738 7f3f
00000140: 0244 7e3f a2d2 7d3f e434 7d3f ecee 7f3f
00000150: 9fa7 7d3f ad31 7f3f f84e 863f 442b 803f
00000160: 734c 7c3f 1cdc 7c3f f45b 823f 7493 833f
00000170: 9db5 7b3f 7684 7d3f 19b7 7c3f 2079 7e3f
00000180: 384d 7d3f 8c70 7f3f 00d6 813f d5f1 853f
00000190: f1ee 7f3f c876 7f3f 8655 7e3f 0a96 873f
000001a0: 7a15 7d3f 4cae 7e3f 397c 813f c569 7f3f
000001b0: e9ae 7d3f 21bb 7e3f 8a0c 7d3f 030f 803f
000001c0: b400 7d3f 2cbc 7e3f 2805 803f a0c0 813f
000001d0: a940 7f3f a1cf 873f 253d 813f fa69 7d3f
000001e0: ddd4 823f 14ad 803f bb68 7e3f 5fc1 803f
000001f0: 43fe 7c3f 5e62 7f3f 43b2 7f3f 2be4 7d3f
00000200: cfdb 7e3f dfd3 7d3f d62d 7d3f 7ed1 7e3f
00000210: fb46 7e3f dd17 7d3f 9dfd 7c3f 3b1e 7e3f
00000220: fc4b 7e3f 8921 7e3f 67c2 7f3f 4464 7d3f
00000230: 925a 7e3f 883e 7a3f 4741 7e3f 53d4 803f
00000240: da14 7e3f b470 803f 95cb 7e3f 6abd 833f
00000250: 0d4e 823f 7304 7f3f 03fe 7e3f 1b59 7b3f
00000260: 06fe 7f3f fd42 803f a07c 7e3f 1fd4 7f3f
00000270: 171d 803f cda6 7c3f 23e4 7e3f 31e3 7c3f
00000280: 641c 7d3f f19f 7d3f dde4 803f a603 7e3f
00000290: 825d 7c3f 50d0 7f3f a78e 7f3f ed11 7f3f
000002a0: 117d 7e3f 85e6 7e3f 8904 7f3f 7f65 7e3f
000002b0: 1cb4 7c3f 5958 7e3f 64ec 7e3f 33f8 813f
000002c0: edb1 823f 9b9c 7e3f 981d 7d3f f310 813f
000002d0: 14c7 893f 63c8 7e3f 1a50 7c3f 3bf3 7d3f
000002e0: d66c 7c3f fe26 7d3f acc9 7c3f 0d47 803f
000002f0: 27d1 7d3f dbe9 7c3f 1c13 7f3f c8d7 7d3f
00000300: 693b 7d3f fcfe 7d3f 41ab 823f 9b23 803f
00000310: 2688 813f ee6c 7b3f 01fa 7f3f 8996 843f
00000320: 0373 7b3f b768 813f 97d4 7d3f 9091 803f
00000330: 340f 7d3f 6997 7e3f 3e98 803f 14b3 7e3f
00000340: 04b9 7d3f ed1d 7f3f 948b 803f 79de 803f
00000350: 1deb 7d3f 9fa0 803f c320 803f 2f86 893f
00000360: 6d3c 7d3f 1e73 7b3f 2ba9 7f3f 62f4 823f
00000370: 7c1e 7e3f 39b3 7d3f 0f39 7c3f af9e 7b3f
00000380: aa4a 7a3f 023e 7e3f cc7d 803f f6fe 7d3f
00000390: 0a2f 7e3f d35e 7e3f 1d77 823f afe5 803f
000003a0: aa0b 7f3f 0bc1 803f 1c4d 7d3f 5702 803f
000003b0: b4f1 803f 31b7 7f3f 5c64 7d3f ec2b 7f3f
000003c0: f557 7f3f f75c 803f 2fc4 803f 975f 7f3f
000003d0: a5dc 7d3f 8237 7e3f afd0 7c3f c6e9 7f3f
000003e0: eb12 7f3f 30e3 7f3f 43f1 7f3f a18b 803f
000003f0: 96a7 7e3f bb1a 7b3f a72b 7c3f f88b 7e3f
0.98628277 0.9851267 1.0043002 1.0221603 0.9909068 0.9909058 0.9950892 1.0164062
0.98570156 0.99516356 0.99216485 0.9898962 0.9854307 0.9910375 0.98866445 0.9998394
0.98624766 0.9843388 1.0038038 0.99316776 0.99255323 0.9927532 0.98403025 0.9969432
1.017248 0.99526995 0.98715794 0.997008 1.0305966 0.9989192 0.9902248 0.9924859
0.99165446 1.0078831 0.99259704 0.98841655 1.0141749 0.9890856 1.0424694 0.9984226
0.9972059 0.99784386 1.0123854 1.0270147 0.9953714 1.0015439 1.0099905 0.9920637
0.9968452 0.99353254 1.0039968 0.9904467 0.98664933 0.98471683 1.0906744 0.9960853
0.98442394 0.9955071 1.0103213 0.9983542 1.0244168 0.9892494 0.9955006 0.9921964
0.9983757 1.0144558 0.9953633 1.0405504 0.997928 1.0046152 0.99647176 1.0456223
1.012723 1.0530304 0.9971464 1.002757 0.99767095 0.9855475 0.99740624 0.9969515
0.9932252 0.99149525 0.9890883 0.9997394 0.99083894 0.99685174 1.0492849 1.0013204
0.9855415 0.9877336 1.0184312 1.0279374 0.98323995 0.99030244 0.98716885 0.9940357
0.9894595 0.9978111 1.0143433 1.0464426 0.9997397 0.9979062 0.9934925 1.0592663
0.98860896 0.99484706 1.0116035 0.99770766 0.99095017 0.99504286 0.9884726 1.0004581
0.988292 0.9950588 1.0001574 1.013691 0.9970804 1.0610238 1.0096785 0.9898983
1.0221211 1.0052819 0.99378556 1.0059012 0.9882547 0.9975947 0.9988138 0.9917628
0.9955415 0.99151415 0.98898065 0.9953841 0.9932706 0.9886454 0.98824483 0.9926488
0.9933469 0.9926992 0.9990601 0.9898112 0.9935695 0.97751665 0.99318355 1.0064796
0.99250567 1.0034394 0.9952939 1.029218 1.0180069 0.99616164 0.9960634 0.9818284
0.99996984 1.0020443 0.9940891 0.99933046 1.0008878 0.9869202 0.9956686 0.98784167
0.98871446 0.99072176 1.0069844 0.9922432 0.9858018 0.99927235 0.99827045 0.9963673
0.99409586 0.99570495 0.99616295 0.9937362 0.98712325 0.9935356 0.99579453 1.0153869
1.0210549 0.9945771 0.9887328 1.0083297 1.0763879 0.99524516 0.98559725 0.99199265
0.9860357 0.9888762 0.98745227 1.0021683 0.99147266 0.98794335 0.99638534 0.9915738
0.9891878 0.992172 1.0208513 1.0010866 1.0119674 0.9821309 0.9999085 1.035844
0.9822237 1.0110081 0.9915251 1.0044422 0.98851323 0.99449784 1.0046461 0.99492
0.99110436 0.9965504 1.0042596 1.0067893 0.9918688 1.0049018 1.0009998 1.0744075
0.9892033 0.9822253 0.99867505 1.023083 0.99265265 0.991016 0.98524565 0.98289007
0.9777018 0.99313366 1.003839 0.99217165 0.99290526 0.9936344 1.01926 1.0070094
0.9962717 1.0058912 0.98945785 1.0000714 1.0073762 0.998889 0.9898126 0.99676394
0.99743587 1.0028371 1.005987 0.99755234 0.991648 0.9930345 0.98755926 0.99966085
0.9963824 0.99956036 0.9997751 1.0042611 0.99474466 0.9808766 0.9850411 0.99432325

layers.2.bias f4 [320]
00000000: 6187 74bb 2038 45bb 2440 9fbb 44d9 adb9
00000010: 48d9 723b e6c6 863b 2d75 833b 4d4f 03bb
00000020: 7cb3 1dbb 30d8 02bb 9c68 fa39 5dda c4b9
00000030: bb9d a8bb 6761 03bb 515a 8b3b 2bee 3d3b
00000040: 1f2e 88bb 3a05 19bb 3911 363b 95f6 08bb
00000050: 77fd b23b 4912 8fba 1aa8 89bb fa16 e03a
00000060: 1aa2 1d3b d4a1 5c3b 90b8 b53b 28d1 eeba
00000070: 9c9d 3cbb 7838 883b b55d b1ba 8952 4fbb
00000080: ec6e 9ab9 d0ef 87ba f784 ea3a 90ed b13b
00000090: 9d46 25bb 73eb ebba 4505 183a 35cc aeba
000000a0: 828d adbb cc5d 713b 9acd 1bbb b2d4 243b
000000b0: 47ee 843a 6c24 8fba 6775 24ba 3760 1dbb
000000c0: 08d3 643b 30df 09ba 5f03 24bb f4ce a03b
000000d0: cb80 8bbb 7b3e 8c3b fcd5 4e3b 375d 07bb
000000e0: ed39 a5bb c018 8a3a 0c95 eab9 6531 eeba
000000f0: e35f 0f3b a992 a13b c26d 773b 8b66 86ba
00000100: b958 f5ba 2262 5cbb d5bd 213b f8af b9ba
00000110: 72af 2eba 3ddb 90ba f925 65bb 27c1 923b
00000120: 683e 90bb 241e 2d3b 020c 8cbb 978e b53a
00000130: 4086 013b 8d25 98bb c805 8e3b dec3 f33a
00000140: e397 1d3b ece4 7f3b 0266 a03b a4ab e23a
00000150: a69e 1f3b 0522 a639 a820 9cbb 3ab7 7eb9
00000160: 152f 87bb 8544 90bb 24da 90b9 0aee 0ebb
00000170: 75bb 99bb 8a46 b2bb 9703 893b b1da ac3b
00000180: e7c0 36bb 196f d6ba 0c61 833b 8052 1d3b
00000190: b42a 233b 0e32 163b 30f5 9b3a 65e7 ef3a
000001a0: 4284 9a3b 92d1 55ba 4133 0dba 0f37 91ba
000001b0: 37bf 90bb a662 8c3b 87f5 04bb 25c3 dfba
000001c0: 565b 8ebb f668 10ba 7d6f 35bb 75ee 42bb
000001d0: b7ff 6b3a 3939 97b9 b1b3 a13a f825 8cbb
000001e0: 53f5 323b b276 87bb 4408 1b3b 8f5a 233b
000001f0: 5ba9 723b a9b4 bcbb 5412 4d3a 8b8a 6e3a
00000200: 3f17 b339 dead c13a b9b3 2fbb ab45 24ba
00000210: 4115 61bb 1e41 4dbb d4b4 953b bebe 633b
00000220: 3534 aeba ffd3 0839 4f3c a6bb e03c 82bb
00000230: a4fd 843b 2fed 763a c9a6 2f3b fc22 acba
00000240: b0a6 b73a 72ff b4ba 6976 46bb cd15 6bbb
00000250: ac39 0b3b 7e4a afbb 98de 4d3b a4b9 8ebb
00000260: 4111 0a3b ac25 923a 5ce3 783b 4322 2a3b
00000270: 4b69 63bb 2a88 973b 634b dcba f1e3 783b
00000280: 1a9c 7b3b 0ab2 803b aecd 75ba b57d e239
00000290: c105 a1bb dc56 a8ba eb2c c43a be78 443a
000002a0: 6faa 54bb 240a 2cbb 560a d9ba 2388 9dba
000002b0: 5540 913b 0f04 203b 9978 d439 6999 faba
000002c0: 19dc 8c3b ecda e83a 6eea 9bbb af25 50bb
000002d0: f8c4 513b a4f1 d53a db9b b03b c411 213b
000002e0: f95f 283b be45 89bb 9a29 5e3b 3490 cd3a
000002f0: 7da5 9e3b b590 80bb 3c8b 12bb 6c0e 96ba
00000300: 2fe0 59bb d7a1 073b d37f c439 933c 713b
00000310: 43d9 973a 499c 8c3b e809 7d3a c65e 823b
00000320: 68d6 533b ee31 70b9 9d5b 94bb 2248 b9ba
00000330: 38d7 8fbb 078e 7439 07aa a83a f6a5 84bb
00000340: 6160 7abb 3b4f aa3a 09e7 1fbb a38d 26bb
00000350: 66b7 57bb b775 1b3b 8aaa ceba 9877 51bb
00000360: f932 ba3b 6593 97bb 9525 7b3b cf8e 2c3b
00000370: 9ee7 f6ba 4259 90bb 6076 a7bb e070 973b
00000380: 44af 103b 81f7 2ebb 13e8 5a3b 1efd 01ba
00000390: 1182 edba 284f 263a 0ff1 37bb 46c5 c2ba
000003a0: 0075 253a 9e70 f7b9 c3c9 46bb 206d 9a3b
000003b0: 216e b63a 021f 0dbb 7ae6 833b ac15 b33a
000003c0: 9d6a d839 ce1d e4ba 92d0 123b 2f92 97ba
000003d0: ac79 b03b a9d5 e939 0450 bc3b 723c b53a
000003e0: d93c d83a 8e94 bbbb f17a 793b 9a2c 4fba
000003f0: 83e1 283b a931 70bb e7e3 a3bb f5c5 6cb9
-0.0037312137 -0.0030093268 -0.004859941 -0.00033159007 0.003705578 0.004113066 0.004011771 -0.002003628
-0.002406328 -0.0019965284 0.00047761656 -0.00037546727 -0.005145756 -0.002004707 0.00425271 0.002898107
-0.0041558887 -0.0023349063 0.0027781262 -0.0020898927 0.0054623443 -0.0010915484 -0.0042009475 0.0017096691
0.002405292 0.0033665793 0.005545683 -0.0018220292 -0.0028780466 0.004157122 -0.0013531955 -0.0031634888
-0.00029455812 -0.0010371152 0.001789241 0.005429931 -0.002521909 -0.0017999246 0.0005799125 -0.0013336005
-0.00529641 0.003682959 -0.002377367 0.002515119 0.0010141813 -0.0010920889 -0.0006273598 -0.0024013647
0.0034915823 -0.0005259393 -0.0025026423 0.0049074832 -0.0042572967 0.004279909 0.003156065 -0.0020654926
-0.0050423057 0.001053594 -0.00044743007 -0.001817268 0.0021877221 0.0049308133 0.003775463 -0.0010253949
-0.0018718458 -0.0033627828 0.00246798 -0.0014166823 -0.00066637166 -0.0011051666 -0.003496526 0.004478592
-0.0044019707 0.002641567 -0.0042738924 0.0013851699 0.0019763857 -0.0046431483 0.0043341853 0.0018597802
0.002404683 0.003904636 0.004894973 0.0017293585 0.0024356036 0.00031687334 -0.004764635 -0.00024291585
-0.0041254857 -0.0044026994 -0.00027628348 -0.0021809363 -0.004691536 -0.005440538 0.004181336 0.0052750935
-0.0027885975 -0.0016360014 0.0040093716 0.0024005473 0.002489728 0.0022918019 0.0011898633 0.0018303214
0.0047154734 -0.00081565336 -0.00053863606 -0.0011079031 -0.004417326 0.0042842207 -0.0020287947 -0.0017071707
-0.004344384 -0.00055088045 -0.002768486 -0.0029744182 0.0009002643 -0.000288436 0.0012336877 -0.004276987
0.002730687 -0.0041340226 0.002365605 0.0024925803 0.0037027213 -0.005758841 0.00078228605 0.0009099624
0.0003415886 0.0014776548 -0.0026810004 -0.0006266485 -0.0034344944 -0.003131933 0.0045686755 0.0034751142
-0.0013290705 0.00013048945 -0.0050731073 -0.003974542 0.0040585566 0.00094194984 0.0026802293 -0.0013132985
0.0014011469 -0.0013809039 -0.003028298 -0.0035871149 0.0021244092 -0.0053494563 0.0031413194 -0.004355626
0.0021067413 0.0011150143 0.0037977314 0.0025960363 -0.003470021 0.0046243863 -0.0016807135 0.003797766
0.0038392604 0.003927474 -0.0009376657 0.00043199738 -0.004914016 -0.0012843269 0.0014967 0.00074947986
-0.003245022 -0.0026251161 -0.0016558866 -0.0012018721 0.004432718 0.0024416482 0.00040525643 -0.0019119206
0.0042986986 0.0017765439 -0.004758171 -0.0031760742 0.0032008272 0.0016322625 0.005389673 0.002457724
0.002569197 -0.004189222 0.0033899308 0.0015683235 0.004841505 -0.0039235004 -0.0022360822 -0.001144839
-0.0033245196 0.002069583 0.0003747927 0.0036809787 0.0011585135 0.0042910916 0.000965266 0.003978583
0.003232384 -0.00022906784 -0.0045275227 -0.0014135877 -0.0043896697 0.00023322563 0.0012868055 -0.0040481044
-0.003820442 0.0012993583 -0.0024399182 -0.0025414012 -0.003291571 0.0023721287 -0.0015767377 -0.0031962153
0.005682346 -0.004625725 0.0038321961 0.0026330238 -0.0018837338 -0.0044051716 -0.005110547 0.00462161
0.0022077123 -0.0026697817 0.0033402487 -0.0004958677 -0.0018120428 0.00063441927 -0.0028067266 -0.0014859817
0.0006311685 -0.00047195418 -0.0030332662 0.0047127157 0.0013918319 -0.0021533375 0.0040252777 0.0013663075
0.00041278164 -0.0017403902 0.002240215 -0.0011563952 0.005385598 0.00044600412 0.0057468433 0.0013827218
0.0016497626 -0.005724496 0.0038067664 -0.00079030695 0.002576918 -0.0036650694 -0.0050015333 -0.00022580459

layers.3.weight f4 [128, 320]
00000000: 78e2 223d 67f8 553c c802 683d 6449 b43c
00000010: efa4 3c3d 619a 143d 0162 bb3c 1f1e 08bc
00000020: ac4a c2ba 3365 0a3d c517 c0bc 4f73 43bd
00000030: 35d4 1aba feb1 fcbc 27a3 2dbd 9355 5c3d
00000040: 82e2 55bd 966f 53ba 5aed a0bc eb8d fa3c
00000050: a9ec 633b 8733 7abb 5638 913c bfa4 36bd
00000060: dbfd 2ebd 2571 36bd 6c4b 3a3d 06f3 2abd
00000070: 878e 86bc 65a5 053d 776a 26bd 585f 383d
00000080: ef4e 383d 0b85 f93c 6401 003d b334 d83c
00000090: 03c1 adbd a9e2 84bc 4c64 dabc fd9a e13c
000000a0: 6042 653d 7b35 babb 44b2 393a 322d 04bd
000000b0: 2a8e 25bc 9824 af3c 5bdb 0cbd 5f22 75bd
000000c0: 672a 92bc eff9 53bd f4b4 7f3d 3d4d 833c
000000d0: eebc c33c a38e 1dbd 6bdb d7bd c105 a33c
000000e0: 2346 f63c 04f1 c2bc c924 503d 2b72 383b
000000f0: a586 923d e820 34bd a4f2 4abd 780b 6bbd
00000100: a6a3 31bd 102f 2c3d 555a 8db9 b32e ae3c
00000110: 4f79 edbc 729d 8dbc 91d8 c33c d177 f63d
00000120: 0953 c43b 5f3e 003d b64d 003d fc3e 823c
00000130: 7247 24bd 84c4 563d c064 283d b48e 3f3d
00000140: 6267 ea3b 22c6 f5bb 3c71 4e3d fde5 94bc
00000150: f1e7 07bd 6f11 42bd 1993 9abc f974 0e3c
00000160: 4248 c43b d7a2 41bd cd0c 3e3d fbab b73a
00000170: af66 42bd 8b04 47bd 634a 69bc b0fc b43c
00000180: b6a1 a8ba 7a27 f93c 0db2 f3bb 3e99 21bd
00000190: 3141 c43c 0da5 d7bc 02a4 203d a1ff df3c
000001a0: e2e5 75bb 7319 1bbd d86f 2d3d e33a 31bc
000001b0: 15da be3c 0cd5 ecbc a1fb 49bd 3fdf 663d
000001c0: d120 b9bc 414e a23b 71ab 263d 732e 22bd
000001d0: ab37 1d3d 035c 86b9 250f eabb ff26 123d
000001e0: 54a1 283d c2b1 30bd 0ffd e2bc 575a 77bc
000001f0: 341f a33a 6b29 263d d5a1 55bc b026 bd3c
00000200: f6f0 aaba 9f5b 303d 50ee 6e3c 336b 0a3d
00000210: b931 1ebd 22b2 ebbc b9ae 0a3c a8b8 883b
00000220: 6672 e7ba 9c02 4b3c 8dd9 d7bc 02a6 023d
00000230: e738 4a3d 6caf 3b3b bc44 c4bb 89fe e83c
00000240: cebf e0bc 02e0 963c 195b 8a3d 8aff a73c
00000250: 7579 58bd f943 2bbc a329 1ebc 40f0 10bc
00000260: 8323 5e3c 9d47 35bb 8dee c0bc f879 8ebc
00000270: b268 74bd a1fd fc3c 2a03 093d 6c01 333d
00000280: 94c3 0bbd 497c 87bc ad03 9ebd fa5e 22bd
00000290: 69e5 0ebd 63a3 3a3d 1036 083d 21f5 463d
000002a0: 7b81 e43c 096c 7f3c 1f5c 333b e828 e3bb
000002b0: 0da0 823c 1473 a0bc 47f5 9bbc f7fe f53a
000002c0: ae52 aebc d217 91bc 9444 713c 605f 21bd
000002d0: 9e9a a0bc 3bc7 573d ccf6 fabc f7dc ba3c
000002e0: e650 783c 074f 70bd 8f23 0abd 6aed dfbc
000002f0: 48c7 1e3d 8345 e63c 0747 a5bc bb49 40bc
00000300: ca5a 2bbd ceeb 31bd bd91 d1bb cc54 34bd
00000310: 4959 f53b 98e9 f0bc c7ef 2cbd 6bb0 063d
00000320: b418 2fbd 19ef e7bc e441 e9bc a674 01bd
00000330: a4bb 3dbd 8f5f b13b 4432 8dbd 963d ec3c
00000340: af94 d93b 3965 893b 6791 2abd f49a 8d3d
00000350: a511 403d e6f5 f03c 4aaf c0bc 2ba8 b4bd
00000360: cdc8 343d 2653 ec3a e7fc c23c 4068 413b
00000370: 9ac3 203d 3579 bf3c 21f3 193d 07db 45bd
00000380: 6bc2 243d 70ad 48bb 0494 133d 8c34 52bd
00000390: f350 30bd 1295 0fbd b10f ff3c a6fd 013b
000003a0: a251 fcbc f0a3 023d 133e 673c 43ae a13b
000003b0: 1b6e 8b3d 5e42 aabc 192f 16bd 77ec 903c
000003c0: c605 013d 90cf bd3b ecfe 563d 7ef6 2bbd
000003d0: 885f 753c 5684 41bb d9d4 24bd d429 76bc
000003e0: 1b13 f93a d6d0 d43b 2aff 7b3b 6815 0abd
000003f0: cf59 0bbc 89d7 f2ba cdae 2dbd f5fa 9b3c
0.03976676 0.013059712 0.056643277 0.022007652 0.04605573 0.03628004 0.02287388 -0.008307963
-0.0014823279 0.033787917 -0.023448834 -0.04771739 -0.0005906255 -0.030846592 -0.042391922 0.053792547
-0.052217968 -0.0008065639 -0.019644428 0.03058525 0.0034778512 -0.0038177685 0.017727058 -0.044590708
-0.042722564 -0.044541497 0.045482084 -0.04173567 -0.016425384 0.032628436 -0.040628877 0.045012802
0.044997152 0.030458948 0.031251326 0.026392316 -0.0848408 -0.016221361 -0.026659153 0.027539724
0.055971503 -0.005682645 0.00070837536 -0.032269664 -0.010104695 0.021379754 -0.03438888 -0.059847232
-0.017842485 -0.051752027 0.06242843 0.016028041 0.0238938 -0.038466107 -0.105398975 0.019900205
0.03006274 -0.023796566 0.05081633 0.0028144221 0.07154588 -0.043976694 -0.049547806 -0.057383984
-0.043368958 0.04203707 -0.00026960918 0.021262502 -0.028988509 -0.01728699 0.023906978 0.12034572
0.005991344 0.03130948 0.03132411 0.015899174 -0.040107198 0.052433506 0.041111708 0.04676695
0.0071534375 -0.007500426 0.050400957 -0.018176073 -0.03318018 -0.047379907 -0.01886897 0.008694881
0.005990059 -0.047274437 0.046398927 0.0014013046 -0.047461208 -0.048588317 -0.014238927 0.022093147
-0.0012865576 0.030414332 -0.007436997 -0.039452784 0.023956867 -0.02632382 0.03921891 0.027343573
-0.0037521054 -0.037866067 0.04234299 -0.010817262 0.023297349 -0.028910182 -0.049312238 0.056365248
-0.022598656 0.0049531762 0.040690843 -0.03959508 0.038383167 -0.00025627026 -0.0071429187 0.03568172
0.04116948 -0.043138273 -0.027708558 -0.015097222 0.0012445212 0.040566843 -0.013039072 0.023089737
-0.0013041783 0.043056127 0.014583185 0.03379364 -0.038621638 -0.028771464 0.008464509 0.0041724034
-0.0017657995 0.012390759 -0.026348853 0.0318966 0.049370673 0.0028638495 -0.005989639 0.028441684
-0.02743521 0.018417362 0.06755657 0.020507593 -0.052850205 -0.010453218 -0.009653482 -0.008846343
0.013558271 -0.0027661093 -0.02355125 -0.017392144 -0.059670158 0.030882658 0.033450283 0.043702528
-0.034122065 -0.016538756 -0.07715545 -0.039641358 -0.03488675 0.045565974 0.033254683 0.048573617
0.027893772 0.015589722 0.002736814 -0.0069323666 0.015945459 -0.019586124 -0.019037856 0.0018768002
-0.02127966 -0.017711554 0.014725823 -0.039397597 -0.019604977 0.052680235 -0.03063526 0.022810442
0.015156006 -0.058669116 -0.033725318 -0.027334888 0.03876427 0.028109318 -0.02017547 -0.011736329
-0.04183463 -0.04343777 -0.006395547 -0.04402618 0.0074874503 -0.029408261 -0.042220857 0.03288309
-0.042748168 -0.028312253 -0.028473802 -0.031605385 -0.046321526 0.005413003 -0.06894353 0.02883796
0.006640039 0.004192975 -0.041642573 0.069143206 0.046891827 0.029414129 -0.023521084 -0.08821138
0.04413681 0.0018030151 0.023802234 0.00295116 0.03924904 0.023373226 0.03758538 -0.048304584
0.040224474 -0.0030620955 0.03602983 -0.051319644 -0.04304595 -0.035054274 0.031135412 0.0019835024
-0.030800644 0.031894624 0.014113921 0.0049341037 0.0680811 -0.0207836 -0.03666601 0.01769088
0.031499647 0.0057925656 0.052489206 -0.04198312 0.01497639 -0.0029528341 -0.04024205 -0.015024621
0.0019002886 0.0064946217 0.003845165 -0.03371182 -0.008505299 -0.0018527369 -0.04240303 0.019040564

layers.3.bias f4 [128]
00000000: 5df6 faba 4cc1 fa3b 9bc4 143d 7529 f6bc
00000010: 9c0d 193b 7fca 9bbc 2ab4 90bc 25d4 4fbd
00000020: 403a 483d b66b f8bc e8a4 133d 433a 35bd
00000030: db08 15bd 840f 953c 685d 0bbc 2af4 98bc
00000040: 7dbe 9ebc af3f 58bd c473 0d3d 6301 633d
00000050: 6fc5 4b3c d070 2c3d 7772 b2bc fcb2 0cbc
00000060: c9c1 05bc 672f 263b 7923 003d 89e5 7d3c
00000070: 3214 e23c 2067 86bc 813c 8cbb 7b16 0e39
00000080: a40d 26bd 565c 05bb e69b 08bc e2ab 30bd
00000090: ae4c dabc f2ff bfbc a4ed 75bc ea98 243d
000000a0: c8b0 52bd 9bc3 8b3b 3262 333d 4553 eebc
000000b0: 164d 5dbd 2458 ccbc 269b 883c 6aed 603d
000000c0: f679 17bd 6885 15bd 51ea 3d3d 0b4f 3fba
000000d0: b4ca ffbc b449 ffbc 5c78 6bbd b884 803c
000000e0: 4742 f43c 7252 bc3c 8256 e83c dadf df3c
000000f0: d68f 02bc 9bb3 143d 562c e9bb 64e1 f4bb
00000100: 77e5 8d3b d3a0 513d 022c a13c 2911 f43c
00000110: 1313 e9bc e201 053d f725 21bd e45b 1e3c
00000120: 7b7b d93c 264f 8b3c 5e06 3cbd c387 2fbd
00000130: ba55 67bd 367b 873c 8698 1b3d fd32 2ebd
00000140: 29b9 2e3c cbb2 07bc c432 f73c 8ad7 fdbb
00000150: 5980 b83c 3fc6 3ebb 7c57 b4bc 146f b63c
00000160: 7b1e a2bc 5c90 f23c b6ef 623d 338d 1b3d
00000170: 88a8 653c 5a83 06bd 998b 143d 9276 08bd
00000180: c709 b8bc 07e0 c7bb 92f5 64bc 4512 ec3b
00000190: b0d0 283d 88d3 5bbd ca49 243d b3dd 4d3d
000001a0: bbc5 16bd 7023 173c ca8b 463d b46c 17bd
000001b0: af39 41bc 1b11 1c3d f8ee 203c 6d11 9ebc
000001c0: 0687 f73c d55a a13c afad a23c 986d c03c
000001d0: de0d 4fbd 2239 113b d8ee 0a3d cd85 2b3d
000001e0: f57c 8b3c 12e2 64bd 359c 233d 24e4 bb3c
000001f0: 7e38 583c 6d94 06bc 65ee 20bd b0ab 1c3d
-0.0019146908 0.0076524373 0.03632031 -0.030049065 0.002335406 -0.019017456 -0.017664034 -0.050739426
0.048883677 -0.030324798 0.03604594 -0.044245016 -0.0363854 0.018195875 -0.0085061565 -0.018671114
-0.019377941 -0.05279511 0.03453423 0.055421244 0.012437209 0.042099774 -0.021783097 -0.008587595
-0.008163878 0.0025357844 0.03128383 0.01549662 0.02759752 -0.016406596 -0.0042796736 0.0001355055
-0.040540352 -0.0020349226 -0.00833795 -0.04313267 -0.026647892 -0.023437474 -0.015010271 0.040184893
-0.051438123 0.0042652613 0.04379482 -0.02909244 -0.054028593 -0.024944372 0.016675543 0.054913916
-0.036981545 -0.03650418 0.04636604 -0.000729785 -0.031224586 -0.031163074 -0.05748783 0.015688285
0.02981676 0.022988532 0.028361563 0.02732842 -0.0079688635 0.036304098 -0.007115881 -0.0074731577
0.004330333 0.051178765 0.019674305 0.029793339 -0.028451478 0.0324725 -0.039342847 0.009665463
0.026548138 0.017005514 -0.04590451 -0.04285408 -0.05647824 0.016538244 0.037987255 -0.042529095
0.010664263 -0.008282374 0.030175574 -0.0077466415 0.022522138 -0.0029109863 -0.022014372 0.022269763
-0.019789925 0.029609852 0.055404387 0.037976455 0.014017232 -0.03284011 0.036265943 -0.033316202
-0.0224656 -0.006099704 -0.013974564 0.0072043263 0.041214645 -0.05366853 0.040109433 0.050260257
-0.036809664 0.009224758 0.048473157 -0.0369689 -0.011793538 0.03810225 0.0098226 -0.019295419
0.030215751 0.019696632 0.01985821 0.023489758 -0.050550334 0.0022159298 0.033919185 0.04187565
0.017027358 -0.05587966 0.039943893 0.022935934 0.013197063 -0.008214098 -0.03928985 0.03824967
